…
THROUGHPUT_MODE: false
TRAIN:
  AUTO_RESUME: true
  BASE_LR: 0.000125
  CLIP_GRAD: 5.0
  COOLDOWN_EPOCHS: 0
  EPOCHS: 300
  LR_SCHEDULER:
    DECAY_EPOCHS: 30
    DECAY_RATE: 0.1
    NAME: cosine
  MIN_LR: 1.25e-06
  OPTIMIZER:
    BETAS:
    - 0.9
    - 0.999
    EPS: 1.0e-08
    MOMENTUM: 0.9
    NAME: adamw
  START_EPOCH: 0
  USE_CHECKPOINT: false
  WARMUP_EPOCHS: 20
  WARMUP_LR: 1.25e-07
  WEIGHT_DECAY: 0.05

[2024-10-23 19:32:41 mlla_tiny] (main.py 117): INFO Creating model:mlla/mlla_tiny
[2024-10-23 19:33:19 mlla_tiny] (main.py 120): INFO MLLA(
  (patch_embed): Stem(
    (conv1): ConvLayer(
      (conv): Conv2d(3, 32, kernel_size=(3, 3), stride=(2, 2), padding=(1, 1), bias=False)
      (norm): BatchNorm2d(32, eps=1e-05, momentum=0.1, affine=True, track_running_stats=True)
      (act): ReLU()
    )
    (conv2): Sequential(
      (0): ConvLayer(
        (conv): Conv2d(32, 32, kernel_size=(3, 3), stride=(1, 1), padding=(1, 1), bias=False)
        (norm): BatchNorm2d(32, eps=1e-05, momentum=0.1, affine=True, track_running_stats=True)
        (act): ReLU()
      )
      (1): ConvLayer(
        (conv): Conv2d(32, 32, kernel_size=(3, 3), stride=(1, 1), padding=(1, 1), bias=False)
        (norm): BatchNorm2d(32, eps=1e-05, momentum=0.1, affine=True, track_running_stats=True)
      )
    )
    (conv3): Sequential(
      (0): ConvLayer(
        (conv): Conv2d(32, 256, kernel_size=(3, 3), stride=(2, 2), padding=(1, 1), bias=False)
        (norm): BatchNorm2d(256, eps=1e-05, momentum=0.1, affine=True, track_running_stats=True)
        (act): ReLU()
      )
      (1): ConvLayer(
        (conv): Conv2d(256, 64, kernel_size=(1, 1), stride=(1, 1), bias=False)
        (norm): BatchNorm2d(64, eps=1e-05, momentum=0.1, affine=True, track_running_stats=True)
      )
    )
  )
  (pos_drop): Dropout(p=0.0, inplace=False)
  (layers): ModuleList(
    (0): BasicLayer(
      dim=64, input_resolution=(56, 56), depth=2
      (blocks): ModuleList(
        (0): MLLABlock(
          dim=64, input_resolution=(56, 56), num_heads=2, mlp_ratio=4.0
          (cpe1): Conv2d(64, 64, kernel_size=(3, 3), stride=(1, 1), padding=(1, 1), groups=64)
          (norm1): LayerNorm((64,), eps=1e-05, elementwise_affine=True)
          (in_proj): Linear(in_features=64, out_features=64, bias=True)
          (act_proj): Linear(in_features=64, out_features=64, bias=True)
          (dwc): Conv2d(64, 64, kernel_size=(3, 3), stride=(1, 1), padding=(1, 1), groups=64)
          (act): SiLU()
          (attn): LinearAttention(
            dim=64, num_heads=2
            (qk): Linear(in_features=64, out_features=128, bias=True)
            (elu): ELU(alpha=1.0)
            (lepe): Conv2d(64, 64, kernel_size=(3, 3), stride=(1, 1), padding=(1, 1), groups=64)
            (rope): RoPE()
          )
          (out_proj): Linear(in_features=64, out_features=64, bias=True)
          (drop_path): Identity()
          (cpe2): Conv2d(64, 64, kernel_size=(3, 3), stride=(1, 1), padding=(1, 1), groups=64)
          (norm2): LayerNorm((64,), eps=1e-05, elementwise_affine=True)
          (mlp): Mlp(
            (fc1): Linear(in_features=64, out_features=256, bias=True)
            (act): GELU(approximate='none')
            (fc2): Linear(in_features=256, out_features=64, bias=True)
            (drop): Dropout(p=0.0, inplace=False)
          )
        )
        (1): MLLABlock(
          dim=64, input_resolution=(56, 56), num_heads=2, mlp_ratio=4.0
          (cpe1): Conv2d(64, 64, kernel_size=(3, 3), stride=(1, 1), padding=(1, 1), groups=64)
          (norm1): LayerNorm((64,), eps=1e-05, elementwise_affine=True)
          (in_proj): Linear(in_features=64, out_features=64, bias=True)
          (act_proj): Linear(in_features=64, out_features=64, bias=True)
          (dwc): Conv2d(64, 64, kernel_size=(3, 3), stride=(1, 1), padding=(1, 1), groups=64)
          (act): SiLU()
          (attn): LinearAttention(
            dim=64, num_heads=2
            (qk): Linear(in_features=64, out_features=128, bias=True)
            (elu): ELU(alpha=1.0)
            (lepe): Conv2d(64, 64, kernel_size=(3, 3), stride=(1, 1), padding=(1, 1), groups=64)
            (rope): RoPE()
          )
          (out_proj): Linear(in_features=64, out_features=64, bias=True)
          (drop_path): DropPath()
          (cpe2): Conv2d(64, 64, kernel_size=(3, 3), stride=(1, 1), padding=(1, 1), groups=64)
          (norm2): LayerNorm((64,), eps=1e-05, elementwise_affine=True)
          (mlp): Mlp(
            (fc1): Linear(in_features=64, out_features=256, bias=True)
            (act): GELU(approximate='none')
            (fc2): Linear(in_features=256, out_features=64, bias=True)
            (drop): Dropout(p=0.0, inplace=False)
          )
        )
      )
      (downsample): PatchMerging(
        (conv): Sequential(
          (0): ConvLayer(
            (conv): Conv2d(64, 512, kernel_size=(1, 1), stride=(1, 1))
            (act): ReLU()
          )
          (1): ConvLayer(
            (conv): Conv2d(512, 512, kernel_size=(3, 3), stride=(2, 2), padding=(1, 1), groups=512)
            (act): ReLU()
          )
          (2): ConvLayer(
            (conv): Conv2d(512, 128, kernel_size=(1, 1), stride=(1, 1))
            (norm): BatchNorm2d(128, eps=1e-05, momentum=0.1, affine=True, track_running_stats=True)
          )
        )
      )
    )
    (1): BasicLayer(
      dim=128, input_resolution=(28, 28), depth=4
      (blocks): ModuleList(
        (0): MLLABlock(
          dim=128, input_resolution=(28, 28), num_heads=4, mlp_ratio=4.0
          (cpe1): Conv2d(128, 128, kernel_size=(3, 3), stride=(1, 1), padding=(1, 1), groups=128)
          (norm1): LayerNorm((128,), eps=1e-05, elementwise_affine=True)
          (in_proj): Linear(in_features=128, out_features=128, bias=True)
          (act_proj): Linear(in_features=128, out_features=128, bias=True)
          (dwc): Conv2d(128, 128, kernel_size=(3, 3), stride=(1, 1), padding=(1, 1), groups=128)
          (act): SiLU()
          (attn): LinearAttention(
            dim=128, num_heads=4
            (qk): Linear(in_features=128, out_features=256, bias=True)
            (elu): ELU(alpha=1.0)
            (lepe): Conv2d(128, 128, kernel_size=(3, 3), stride=(1, 1), padding=(1, 1), groups=128)
            (rope): RoPE()
          )
          (out_proj): Linear(in_features=128, out_features=128, bias=True)
          (drop_path): DropPath()
          (cpe2): Conv2d(128, 128, kernel_size=(3, 3), stride=(1, 1), padding=(1, 1), groups=128)
          (norm2): LayerNorm((128,), eps=1e-05, elementwise_affine=True)
          (mlp): Mlp(
            (fc1): Linear(in_features=128, out_features=512, bias=True)
            (act): GELU(approximate='none')
            (fc2): Linear(in_features=512, out_features=128, bias=True)
            (drop): Dropout(p=0.0, inplace=False)
          )
        )
        (1): MLLABlock(
          dim=128, input_resolution=(28, 28), num_heads=4, mlp_ratio=4.0
          (cpe1): Conv2d(128, 128, kernel_size=(3, 3), stride=(1, 1), padding=(1, 1), groups=128)
          (norm1): LayerNorm((128,), eps=1e-05, elementwise_affine=True)
          (in_proj): Linear(in_features=128, out_features=128, bias=True)
          (act_proj): Linear(in_features=128, out_features=128, bias=True)
          (dwc): Conv2d(128, 128, kernel_size=(3, 3), stride=(1, 1), padding=(1, 1), groups=128)
          (act): SiLU()
          (attn): LinearAttention(
            dim=128, num_heads=4
            (qk): Linear(in_features=128, out_features=256, bias=True)
            (elu): ELU(alpha=1.0)
            (lepe): Conv2d(128, 128, kernel_size=(3, 3), stride=(1, 1), padding=(1, 1), groups=128)
            (rope): RoPE()
          )
          (out_proj): Linear(in_features=128, out_features=128, bias=True)
          (drop_path): DropPath()
          (cpe2): Conv2d(128, 128, kernel_size=(3, 3), stride=(1, 1), padding=(1, 1), groups=128)
          (norm2): LayerNorm((128,), eps=1e-05, elementwise_affine=True)
          (mlp): Mlp(
            (fc1): Linear(in_features=128, out_features=512, bias=True)
            (act): GELU(approximate='none')
            (fc2): Linear(in_features=512, out_features=128, bias=True)
            (drop): Dropout(p=0.0, inplace=False)
          )
        )
        (2): MLLABlock(
          dim=128, input_resolution=(28, 28), num_heads=4, mlp_ratio=4.0
          (cpe1): Conv2d(128, 128, kernel_size=(3, 3), stride=(1, 1), padding=(1, 1), groups=128)
          (norm1): LayerNorm((128,), eps=1e-05, elementwise_affine=True)
          (in_proj): Linear(in_features=128, out_features=128, bias=True)
          (act_proj): Linear(in_features=128, out_features=128, bias=True)
          (dwc): Conv2d(128, 128, kernel_size=(3, 3), stride=(1, 1), padding=(1, 1), groups=128)
          (act): SiLU()
          (attn): LinearAttention(
            dim=128, num_heads=4
            (qk): Linear(in_features=128, out_features=256, bias=True)
            (elu): ELU(alpha=1.0)
            (lepe): Conv2d(128, 128, kernel_size=(3, 3), stride=(1, 1), padding=(1, 1), groups=128)
            (rope): RoPE()
          )
          (out_proj): Linear(in_features=128, out_features=128, bias=True)
          (drop_path): DropPath()
          (cpe2): Conv2d(128, 128, kernel_size=(3, 3), stride=(1, 1), padding=(1, 1), groups=128)
          (norm2): LayerNorm((128,), eps=1e-05, elementwise_affine=True)
          (mlp): Mlp(
            (fc1): Linear(in_features=128, out_features=512, bias=True)
            (act): GELU(approximate='none')
            (fc2): Linear(in_features=512, out_features=128, bias=True)
            (drop): Dropout(p=0.0, inplace=False)
          )
        )
        (3): MLLABlock(
          dim=128, input_resolution=(28, 28), num_heads=4, mlp_ratio=4.0
          (cpe1): Conv2d(128, 128, kernel_size=(3, 3), stride=(1, 1), padding=(1, 1), groups=128)
          (norm1): LayerNorm((128,), eps=1e-05, elementwise_affine=True)
          (in_proj): Linear(in_features=128, out_features=128, bias=True)
          (act_proj): Linear(in_features=128, out_features=128, bias=True)
          (dwc): Conv2d(128, 128, kernel_size=(3, 3), stride=(1, 1), padding=(1, 1), groups=128)
          (act): SiLU()
          (attn): LinearAttention(
            dim=128, num_heads=4
            (qk): Linear(in_features=128, out_features=256, bias=True)
            (elu): ELU(alpha=1.0)
            (lepe): Conv2d(128, 128, kernel_size=(3, 3), stride=(1, 1), padding=(1, 1), groups=128)
            (rope): RoPE()
          )
          (out_proj): Linear(in_features=128, out_features=128, bias=True)
          (drop_path): DropPath()
          (cpe2): Conv2d(128, 128, kernel_size=(3, 3), stride=(1, 1), padding=(1, 1), groups=128)
          (norm2): LayerNorm((128,), eps=1e-05, elementwise_affine=True)
          (mlp): Mlp(
            (fc1): Linear(in_features=128, out_features=512, bias=True)
            (act): GELU(approximate='none')
            (fc2): Linear(in_features=512, out_features=128, bias=True)
            (drop): Dropout(p=0.0, inplace=False)
          )
        )
      )
      (downsample): PatchMerging(
        (conv): Sequential(
          (0): ConvLayer(
            (conv): Conv2d(128, 1024, kernel_size=(1, 1), stride=(1, 1))
            (act): ReLU()
          )
          (1): ConvLayer(
            (conv): Conv2d(1024, 1024, kernel_size=(3, 3), stride=(2, 2), padding=(1, 1), groups=1024)
            (act): ReLU()
          )
          (2): ConvLayer(
            (conv): Conv2d(1024, 256, kernel_size=(1, 1), stride=(1, 1))
            (norm): BatchNorm2d(256, eps=1e-05, momentum=0.1, affine=True, track_running_stats=True)
          )
        )
      )
    )
    (2): BasicLayer(
      dim=256, input_resolution=(14, 14), depth=8
      (blocks): ModuleList(
        (0): MLLABlock(
          dim=256, input_resolution=(14, 14), num_heads=8, mlp_ratio=4.0
          (cpe1): Conv2d(256, 256, kernel_size=(3, 3), stride=(1, 1), padding=(1, 1), groups=256)
          (norm1): LayerNorm((256,), eps=1e-05, elementwise_affine=True)
          (in_proj): Linear(in_features=256, out_features=256, bias=True)
          (act_proj): Linear(in_features=256, out_features=256, bias=True)
          (dwc): Conv2d(256, 256, kernel_size=(3, 3), stride=(1, 1), padding=(1, 1), groups=256)
          (act): SiLU()
          (attn): LinearAttention(
            dim=256, num_heads=8
            (qk): Linear(in_features=256, out_features=512, bias=True)
            (elu): ELU(alpha=1.0)
            (lepe): Conv2d(256, 256, kernel_size=(3, 3), stride=(1, 1), padding=(1, 1), groups=256)
            (rope): RoPE()
          )
          (out_proj): Linear(in_features=256, out_features=256, bias=True)
          (drop_path): DropPath()
          (cpe2): Conv2d(256, 256, kernel_size=(3, 3), stride=(1, 1), padding=(1, 1), groups=256)
          (norm2): LayerNorm((256,), eps=1e-05, elementwise_affine=True)
          (mlp): Mlp(
            (fc1): Linear(in_features=256, out_features=1024, bias=True)
            (act): GELU(approximate='none')
            (fc2): Linear(in_features=1024, out_features=256, bias=True)
            (drop): Dropout(p=0.0, inplace=False)
          )
        )
        (1): MLLABlock(
          dim=256, input_resolution=(14, 14), num_heads=8, mlp_ratio=4.0
          (cpe1): Conv2d(256, 256, kernel_size=(3, 3), stride=(1, 1), padding=(1, 1), groups=256)
          (norm1): LayerNorm((256,), eps=1e-05, elementwise_affine=True)
          (in_proj): Linear(in_features=256, out_features=256, bias=True)
          (act_proj): Linear(in_features=256, out_features=256, bias=True)
          (dwc): Conv2d(256, 256, kernel_size=(3, 3), stride=(1, 1), padding=(1, 1), groups=256)
          (act): SiLU()
          (attn): LinearAttention(
            dim=256, num_heads=8
            (qk): Linear(in_features=256, out_features=512, bias=True)
            (elu): ELU(alpha=1.0)
            (lepe): Conv2d(256, 256, kernel_size=(3, 3), stride=(1, 1), padding=(1, 1), groups=256)
            (rope): RoPE()
          )
          (out_proj): Linear(in_features=256, out_features=256, bias=True)
          (drop_path): DropPath()
          (cpe2): Conv2d(256, 256, kernel_size=(3, 3), stride=(1, 1), padding=(1, 1), groups=256)
          (norm2): LayerNorm((256,), eps=1e-05, elementwise_affine=True)
          (mlp): Mlp(
            (fc1): Linear(in_features=256, out_features=1024, bias=True)
            (act): GELU(approximate='none')
            (fc2): Linear(in_features=1024, out_features=256, bias=True)
            (drop): Dropout(p=0.0, inplace=False)
          )
        )
        (2): MLLABlock(
          dim=256, input_resolution=(14, 14), num_heads=8, mlp_ratio=4.0
          (cpe1): Conv2d(256, 256, kernel_size=(3, 3), stride=(1, 1), padding=(1, 1), groups=256)
          (norm1): LayerNorm((256,), eps=1e-05, elementwise_affine=True)
          (in_proj): Linear(in_features=256, out_features=256, bias=True)
          (act_proj): Linear(in_features=256, out_features=256, bias=True)
          (dwc): Conv2d(256, 256, kernel_size=(3, 3), stride=(1, 1), padding=(1, 1), groups=256)
          (act): SiLU()
          (attn): LinearAttention(
            dim=256, num_heads=8
            (qk): Linear(in_features=256, out_features=512, bias=True)
            (elu): ELU(alpha=1.0)
            (lepe): Conv2d(256, 256, kernel_size=(3, 3), stride=(1, 1), padding=(1, 1), groups=256)
            (rope): RoPE()
          )
          (out_proj): Linear(in_features=256, out_features=256, bias=True)
          (drop_path): DropPath()
          (cpe2): Conv2d(256, 256, kernel_size=(3, 3), stride=(1, 1), padding=(1, 1), groups=256)
          (norm2): LayerNorm((256,), eps=1e-05, elementwise_affine=True)
          (mlp): Mlp(
            (fc1): Linear(in_features=256, out_features=1024, bias=True)
            (act): GELU(approximate='none')
            (fc2): Linear(in_features=1024, out_features=256, bias=True)
            (drop): Dropout(p=0.0, inplace=False)
          )
        )
        (3): MLLABlock(
          dim=256, input_resolution=(14, 14), num_heads=8, mlp_ratio=4.0
          (cpe1): Conv2d(256, 256, kernel_size=(3, 3), stride=(1, 1), padding=(1, 1), groups=256)
          (norm1): LayerNorm((256,), eps=1e-05, elementwise_affine=True)
          (in_proj): Linear(in_features=256, out_features=256, bias=True)
          (act_proj): Linear(in_features=256, out_features=256, bias=True)
          (dwc): Conv2d(256, 256, kernel_size=(3, 3), stride=(1, 1), padding=(1, 1), groups=256)
          (act): SiLU()
          (attn): LinearAttention(
            dim=256, num_heads=8
            (qk): Linear(in_features=256, out_features=512, bias=True)
            (elu): ELU(alpha=1.0)
            (lepe): Conv2d(256, 256, kernel_size=(3, 3), stride=(1, 1), padding=(1, 1), groups=256)
            (rope): RoPE()
          )
          (out_proj): Linear(in_features=256, out_features=256, bias=True)
          (drop_path): DropPath()
          (cpe2): Conv2d(256, 256, kernel_size=(3, 3), stride=(1, 1), padding=(1, 1), groups=256)
          (norm2): LayerNorm((256,), eps=1e-05, elementwise_affine=True)
          (mlp): Mlp(
            (fc1): Linear(in_features=256, out_features=1024, bias=True)
            (act): GELU(approximate='none')
            (fc2): Linear(in_features=1024, out_features=256, bias=True)
            (drop): Dropout(p=0.0, inplace=False)
          )
        )
        (4): MLLABlock(
          dim=256, input_resolution=(14, 14), num_heads=8, mlp_ratio=4.0
          (cpe1): Conv2d(256, 256, kernel_size=(3, 3), stride=(1, 1), padding=(1, 1), groups=256)
          (norm1): LayerNorm((256,), eps=1e-05, elementwise_affine=True)
          (in_proj): Linear(in_features=256, out_features=256, bias=True)
          (act_proj): Linear(in_features=256, out_features=256, bias=True)
          (dwc): Conv2d(256, 256, kernel_size=(3, 3), stride=(1, 1), padding=(1, 1), groups=256)
          (act): SiLU()
          (attn): LinearAttention(
            dim=256, num_heads=8
            (qk): Linear(in_features=256, out_features=512, bias=True)
            (elu): ELU(alpha=1.0)
            (lepe): Conv2d(256, 256, kernel_size=(3, 3), stride=(1, 1), padding=(1, 1), groups=256)
            (rope): RoPE()
          )
          (out_proj): Linear(in_features=256, out_features=256, bias=True)
          (drop_path): DropPath()
          (cpe2): Conv2d(256, 256, kernel_size=(3, 3), stride=(1, 1), padding=(1, 1), groups=256)
          (norm2): LayerNorm((256,), eps=1e-05, elementwise_affine=True)
          (mlp): Mlp(
            (fc1): Linear(in_features=256, out_features=1024, bias=True)
            (act): GELU(approximate='none')
            (fc2): Linear(in_features=1024, out_features=256, bias=True)
            (drop): Dropout(p=0.0, inplace=False)
          )
        )
        (5): MLLABlock(
          dim=256, input_resolution=(14, 14), num_heads=8, mlp_ratio=4.0
          (cpe1): Conv2d(256, 256, kernel_size=(3, 3), stride=(1, 1), padding=(1, 1), groups=256)
          (norm1): LayerNorm((256,), eps=1e-05, elementwise_affine=True)
          (in_proj): Linear(in_features=256, out_features=256, bias=True)
          (act_proj): Linear(in_features=256, out_features=256, bias=True)
          (dwc): Conv2d(256, 256, kernel_size=(3, 3), stride=(1, 1), padding=(1, 1), groups=256)
          (act): SiLU()
          (attn): LinearAttention(
            dim=256, num_heads=8
            (qk): Linear(in_features=256, out_features=512, bias=True)
            (elu): ELU(alpha=1.0)
            (lepe): Conv2d(256, 256, kernel_size=(3, 3), stride=(1, 1), padding=(1, 1), groups=256)
            (rope): RoPE()
          )
          (out_proj): Linear(in_features=256, out_features=256, bias=True)
          (drop_path): DropPath()
          (cpe2): Conv2d(256, 256, kernel_size=(3, 3), stride=(1, 1), padding=(1, 1), groups=256)
          (norm2): LayerNorm((256,), eps=1e-05, elementwise_affine=True)
          (mlp): Mlp(
            (fc1): Linear(in_features=256, out_features=1024, bias=True)
            (act): GELU(approximate='none')
            (fc2): Linear(in_features=1024, out_features=256, bias=True)
            (drop): Dropout(p=0.0, inplace=False)
          )
        )
        (6): MLLABlock(
          dim=256, input_resolution=(14, 14), num_heads=8, mlp_ratio=4.0
          (cpe1): Conv2d(256, 256, kernel_size=(3, 3), stride=(1, 1), padding=(1, 1), groups=256)
          (norm1): LayerNorm((256,), eps=1e-05, elementwise_affine=True)
          (in_proj): Linear(in_features=256, out_features=256, bias=True)
          (act_proj): Linear(in_features=256, out_features=256, bias=True)
          (dwc): Conv2d(256, 256, kernel_size=(3, 3), stride=(1, 1), padding=(1, 1), groups=256)
          (act): SiLU()
          (attn): LinearAttention(
            dim=256, num_heads=8
            (qk): Linear(in_features=256, out_features=512, bias=True)
            (elu): ELU(alpha=1.0)
            (lepe): Conv2d(256, 256, kernel_size=(3, 3), stride=(1, 1), padding=(1, 1), groups=256)
            (rope): RoPE()
          )
          (out_proj): Linear(in_features=256, out_features=256, bias=True)
          (drop_path): DropPath()
          (cpe2): Conv2d(256, 256, kernel_size=(3, 3), stride=(1, 1), padding=(1, 1), groups=256)
          (norm2): LayerNorm((256,), eps=1e-05, elementwise_affine=True)
          (mlp): Mlp(
            (fc1): Linear(in_features=256, out_features=1024, bias=True)
            (act): GELU(approximate='none')
            (fc2): Linear(in_features=1024, out_features=256, bias=True)
            (drop): Dropout(p=0.0, inplace=False)
          )
        )
        (7): MLLABlock(
          dim=256, input_resolution=(14, 14), num_heads=8, mlp_ratio=4.0
          (cpe1): Conv2d(256, 256, kernel_size=(3, 3), stride=(1, 1), padding=(1, 1), groups=256)
          (norm1): LayerNorm((256,), eps=1e-05, elementwise_affine=True)
          (in_proj): Linear(in_features=256, out_features=256, bias=True)
          (act_proj): Linear(in_features=256, out_features=256, bias=True)
          (dwc): Conv2d(256, 256, kernel_size=(3, 3), stride=(1, 1), padding=(1, 1), groups=256)
          (act): SiLU()
          (attn): LinearAttention(
            dim=256, num_heads=8
            (qk): Linear(in_features=256, out_features=512, bias=True)
            (elu): ELU(alpha=1.0)
            (lepe): Conv2d(256, 256, kernel_size=(3, 3), stride=(1, 1), padding=(1, 1), groups=256)
            (rope): RoPE()
          )
          (out_proj): Linear(in_features=256, out_features=256, bias=True)
          (drop_path): DropPath()
          (cpe2): Conv2d(256, 256, kernel_size=(3, 3), stride=(1, 1), padding=(1, 1), groups=256)
          (norm2): LayerNorm((256,), eps=1e-05, elementwise_affine=True)
          (mlp): Mlp(
            (fc1): Linear(in_features=256, out_features=1024, bias=True)
            (act): GELU(approximate='none')
            (fc2): Linear(in_features=1024, out_features=256, bias=True)
            (drop): Dropout(p=0.0, inplace=False)
          )
        )
      )
      (downsample): PatchMerging(
        (conv): Sequential(
          (0): ConvLayer(
            (conv): Conv2d(256, 2048, kernel_size=(1, 1), stride=(1, 1))
            (act): ReLU()
          )
          (1): ConvLayer(
            (conv): Conv2d(2048, 2048, kernel_size=(3, 3), stride=(2, 2), padding=(1, 1), groups=2048)
            (act): ReLU()
          )
          (2): ConvLayer(
            (conv): Conv2d(2048, 512, kernel_size=(1, 1), stride=(1, 1))
            (norm): BatchNorm2d(512, eps=1e-05, momentum=0.1, affine=True, track_running_stats=True)
          )
        )
      )
    )
    (3): BasicLayer(
      dim=512, input_resolution=(7, 7), depth=4
      (blocks): ModuleList(
        (0): MLLABlock(
          dim=512, input_resolution=(7, 7), num_heads=16, mlp_ratio=4.0
          (cpe1): Conv2d(512, 512, kernel_size=(3, 3), stride=(1, 1), padding=(1, 1), groups=512)
          (norm1): LayerNorm((512,), eps=1e-05, elementwise_affine=True)
          (in_proj): Linear(in_features=512, out_features=512, bias=True)
          (act_proj): Linear(in_features=512, out_features=512, bias=True)
          (dwc): Conv2d(512, 512, kernel_size=(3, 3), stride=(1, 1), padding=(1, 1), groups=512)
          (act): SiLU()
          (attn): LinearAttention(
            dim=512, num_heads=16
            (qk): Linear(in_features=512, out_features=1024, bias=True)
            (elu): ELU(alpha=1.0)
            (lepe): Conv2d(512, 512, kernel_size=(3, 3), stride=(1, 1), padding=(1, 1), groups=512)
            (rope): RoPE()
          )
          (out_proj): Linear(in_features=512, out_features=512, bias=True)
          (drop_path): DropPath()
          (cpe2): Conv2d(512, 512, kernel_size=(3, 3), stride=(1, 1), padding=(1, 1), groups=512)
          (norm2): LayerNorm((512,), eps=1e-05, elementwise_affine=True)
          (mlp): Mlp(
            (fc1): Linear(in_features=512, out_features=2048, bias=True)
            (act): GELU(approximate='none')
            (fc2): Linear(in_features=2048, out_features=512, bias=True)
            (drop): Dropout(p=0.0, inplace=False)
          )
        )
        (1): MLLABlock(
          dim=512, input_resolution=(7, 7), num_heads=16, mlp_ratio=4.0
          (cpe1): Conv2d(512, 512, kernel_size=(3, 3), stride=(1, 1), padding=(1, 1), groups=512)
          (norm1): LayerNorm((512,), eps=1e-05, elementwise_affine=True)
          (in_proj): Linear(in_features=512, out_features=512, bias=True)
          (act_proj): Linear(in_features=512, out_features=512, bias=True)
          (dwc): Conv2d(512, 512, kernel_size=(3, 3), stride=(1, 1), padding=(1, 1), groups=512)
          (act): SiLU()
          (attn): LinearAttention(
            dim=512, num_heads=16
            (qk): Linear(in_features=512, out_features=1024, bias=True)
            (elu): ELU(alpha=1.0)
            (lepe): Conv2d(512, 512, kernel_size=(3, 3), stride=(1, 1), padding=(1, 1), groups=512)
            (rope): RoPE()
          )
          (out_proj): Linear(in_features=512, out_features=512, bias=True)
          (drop_path): DropPath()
          (cpe2): Conv2d(512, 512, kernel_size=(3, 3), stride=(1, 1), padding=(1, 1), groups=512)
          (norm2): LayerNorm((512,), eps=1e-05, elementwise_affine=True)
          (mlp): Mlp(
            (fc1): Linear(in_features=512, out_features=2048, bias=True)
            (act): GELU(approximate='none')
            (fc2): Linear(in_features=2048, out_features=512, bias=True)
            (drop): Dropout(p=0.0, inplace=False)
          )
        )
        (2): MLLABlock(
          dim=512, input_resolution=(7, 7), num_heads=16, mlp_ratio=4.0
          (cpe1): Conv2d(512, 512, kernel_size=(3, 3), stride=(1, 1), padding=(1, 1), groups=512)
          (norm1): LayerNorm((512,), eps=1e-05, elementwise_affine=True)
          (in_proj): Linear(in_features=512, out_features=512, bias=True)
          (act_proj): Linear(in_features=512, out_features=512, bias=True)
          (dwc): Conv2d(512, 512, kernel_size=(3, 3), stride=(1, 1), padding=(1, 1), groups=512)
          (act): SiLU()
          (attn): LinearAttention(
            dim=512, num_heads=16
            (qk): Linear(in_features=512, out_features=1024, bias=True)
            (elu): ELU(alpha=1.0)
            (lepe): Conv2d(512, 512, kernel_size=(3, 3), stride=(1, 1), padding=(1, 1), groups=512)
            (rope): RoPE()
          )
          (out_proj): Linear(in_features=512, out_features=512, bias=True)
          (drop_path): DropPath()
          (cpe2): Conv2d(512, 512, kernel_size=(3, 3), stride=(1, 1), padding=(1, 1), groups=512)
          (norm2): LayerNorm((512,), eps=1e-05, elementwise_affine=True)
          (mlp): Mlp(
            (fc1): Linear(in_features=512, out_features=2048, bias=True)
            (act): GELU(approximate='none')
            (fc2): Linear(in_features=2048, out_features=512, bias=True)
            (drop): Dropout(p=0.0, inplace=False)
          )
        )
        (3): MLLABlock(
          dim=512, input_resolution=(7, 7), num_heads=16, mlp_ratio=4.0
          (cpe1): Conv2d(512, 512, kernel_size=(3, 3), stride=(1, 1), padding=(1, 1), groups=512)
          (norm1): LayerNorm((512,), eps=1e-05, elementwise_affine=True)
          (in_proj): Linear(in_features=512, out_features=512, bias=True)
          (act_proj): Linear(in_features=512, out_features=512, bias=True)
          (dwc): Conv2d(512, 512, kernel_size=(3, 3), stride=(1, 1), padding=(1, 1), groups=512)
          (act): SiLU()
          (attn): LinearAttention(
            dim=512, num_heads=16
            (qk): Linear(in_features=512, out_features=1024, bias=True)
            (elu): ELU(alpha=1.0)
            (lepe): Conv2d(512, 512, kernel_size=(3, 3), stride=(1, 1), padding=(1, 1), groups=512)
            (rope): RoPE()
          )
          (out_proj): Linear(in_features=512, out_features=512, bias=True)
          (drop_path): DropPath()
          (cpe2): Conv2d(512, 512, kernel_size=(3, 3), stride=(1, 1), padding=(1, 1), groups=512)
          (norm2): LayerNorm((512,), eps=1e-05, elementwise_affine=True)
          (mlp): Mlp(
            (fc1): Linear(in_features=512, out_features=2048, bias=True)
            (act): GELU(approximate='none')
            (fc2): Linear(in_features=2048, out_features=512, bias=True)
            (drop): Dropout(p=0.0, inplace=False)
          )
        )
      )
    )
  )
  (norm): LayerNorm((512,), eps=1e-05, elementwise_affine=True)
  (avgpool): AdaptiveAvgPool1d(output_size=1)
  (head): Linear(in_features=512, out_features=1000, bias=True)
)
[2024-10-23 19:33:19 mlla_tiny] (main.py 154): INFO no checkpoint found in work_dir/mlla_tiny/default, ignoring auto resume
[2024-10-23 19:33:19 mlla_tiny] (main.py 168): INFO Model EMA decay 0.9999874975774891
[2024-10-23 19:34:11 mlla_tiny] (main.py 350): INFO  * Acc@1 0.100 Acc@5 0.500
[2024-10-23 19:34:11 mlla_tiny] (main.py 177): INFO Accuracy of the ema network on the 10000 test images: 0.1%
…
